data.pth (torch, 5249 bytes, 6 tensors)

l1.weight f4 [8, 54]
0	0xbeaf7f74	-0.34276927
1	0x3ef6a7df	0.4817495
2	0xbecfb3da	-0.40566903
3	0x3edc86b6	0.43071526
4	0x3e00a17a	0.12561598
5	0x3f1cf292	0.6130763
6	0xbe792e51	-0.24334075
7	0xbe578a61	-0.21048881
8	0xbee11a34	-0.43965304
9	0xbe5d5d54	-0.21617633
10	0x3ee33e7b	0.44383606
11	0x3db31e1a	0.08745976
12	0xbcc1c1ee	-0.023652043
13	0xbd33b0db	-0.043869834
14	0x3f01a5ee	0.50643814
15	0x3db1a02c	0.086731285
16	0x3efe97e4	0.49725258
17	0x3f0978cf	0.53699964
18	0xbe78c2e2	-0.24293092
19	0x3f1b2ef2	0.6061851
20	0xbdcf1bec	-0.101127476
21	0x3f0d78bf	0.5526237
22	0x3f234c60	0.63788414
23	0x3ed35795	0.41277757
24	0xbd09c433	-0.033634376
25	0x3eb29098	0.3487594
26	0xbe9ad0c4	-0.302374
27	0x3f1552a6	0.58329237
28	0xbe8d939d	-0.27651682
29	0x3f2b0574	0.66805196
30	0x3f080754	0.5313618
31	0xbd384b98	-0.044993967
32	0xbe85f68b	-0.2616466
33	0xbe932c06	-0.28744525
34	0x3f07f2bd	0.53104764
35	0x3e36e1a1	0.17859508
36	0xbdbedcb0	-0.093194366
37	0xbece330a	-0.40273315
38	0xbe7e6a16	-0.24845156
39	0xbd931340	-0.07181406
40	0x3ece3a48	0.4027884
41	0xbeb8273b	-0.3596743
42	0x3d1e75cb	0.038686555
43	0x3f04d1e9	0.518828
44	0xbe88bb74	-0.26705515
45	0x3f07d277	0.5305552
46	0xbf0c6b45	-0.5485118
47	0xbe67fb91	-0.22654559
48	0x3e2eb795	0.17062218
49	0xbe96df91	-0.29467443
50	0x3e405baf	0.18784975
51	0xbe176584	-0.14784819
52	0xbd95c654	-0.07313219
53	0x3d3d8d4e	0.046277337
54	0x3ec44ead	0.38341275
55	0x3edef44d	0.43545762
56	0xbf0ea18d	-0.55715257
57	0xbed7d5a4	-0.42155182
58	0xbe40c95d	-0.18826814
59	0x3f38f29d	0.722452
60	0xbe2ef477	-0.17085443
61	0xbf03fc56	-0.5155691
62	0xbe8e1869	-0.27752998
63	0xbec366d8	-0.381644
64	0xbea33877	-0.31879017
65	0xbe47f429	-0.19526733
66	0x3ec90ca5	0.3926746
67	0xbdfe7af2	-0.12425794
68	0x3f027dcb	0.50973195
69	0x3d12eea3	0.035872113
70	0xbeae3bf9	-0.3403013
71	0x3f40bf06	0.7529148
72	0x3ec99050	0.39367914
73	0xbf1d7558	-0.6150718
74	0x3e824094	0.25439894
75	0xbf28bbe7	-0.65911716
76	0xbf28b84d	-0.6590622
77	0xbf4757b3	-0.77868193
78	0xbddb1328	-0.10697013
79	0xbea83e7e	-0.32860178
80	0x3f13fbdb	0.57806176
81	0x3ecebbb5	0.40377584
82	0x3ee40b6f	0.44539973
83	0x3e736a05	0.23770912
84	0x3ed2a70f	0.4114308
85	0x3d69403c	0.056946024
86	0x3e6e29a6	0.23258075
87	0xbf1072dc	-0.5642526
88	0x3f11ef23	0.5700552
89	0xbcc75b3f	-0.024335502
90	0x3eaaf1fe	0.3338775
91	0xbf052411	-0.5200816
92	0xbd64ff2c	-0.055907413
93	0xbd7c427e	-0.06158685
94	0x3ecdf5c5	0.4022657
95	0x3ef648ea	0.48102504
96	0x3d48220a	0.048860587
97	0x3edd9c3f	0.4328327
98	0xbef680f6	-0.48145264
99	0x3f1f094d	0.62123567
100	0x3ed6d74e	0.4196114
101	0x3e827a6e	0.2548403
102	0x3dba7175	0.091036715
103	0x3ee81d78	0.45334983
104	0xbdb69129	-0.08914406
105	0x3ef5417c	0.47901523
106	0xbda57ddb	-0.08080646
107	0x3ea74e3a	0.3267687
108	0xbe2be5d1	-0.16786887
109	0xbe7debb9	-0.24796952
110	0x3f13a9da	0.5768105
111	0x3ec0663e	0.37578005
112	0x3f1651ca	0.5871855
113	0x3f40c482	0.7529985
114	0x3eab085c	0.33404815
115	0x3eeedb2c	0.4665159
116	0x3ee7b9c5	0.45258918
117	0x3eacef00	0.33776093
118	0x3eb1b0f9	0.34705332
119	0x3d840547	0.06446319
120	0xbbae106b	-0.005312016
121	0xbda70a70	-0.08156288
122	0xbe58af35	-0.21160586
123	0x3dab63c4	0.08368638
124	0x3ea87e08	0.32908654
125	0x3f436ac1	0.7633477
126	0xbe78f552	-0.24312332
127	0x3f0cfe21	0.5507527
128	0xbd971a00	-0.07378006
129	0x3f2066e7	0.62657017
130	0x3ec616da	0.3868931
131	0x3e97251e	0.29520506
132	0x3eef8295	0.46779314
133	0x3e4c3369	0.19941486
134	0xbef664f4	-0.48123896
135	0xbe955ad3	-0.29170856
136	0xbebbdcf0	-0.36692
137	0xbee4b8c3	-0.44672212
138	0x3eb60ae8	0.35555196
139	0xbdde2403	-0.108467124
140	0xbd2b70f4	-0.041855767
141	0x3f12d157	0.5735068
142	0xbe2adf8c	-0.16686839
143	0x3e16a98e	0.14713117
144	0xbe3365a8	-0.17519248
145	0x3ef176a9	0.47160843
146	0x3ee8586b	0.45379958
147	0x3e91dca9	0.28488663
148	0x3ed6a124	0.41919816
149	0xbeeffd2f	-0.4687285
150	0x3c9beb52	0.019033108
151	0xbe8a8aea	-0.27059108
152	0x3ecfe509	0.40604427
153	0xbe233f74	-0.15942174
154	0xbf20ba29	-0.6278406
155	0xbd9b2510	-0.075754285
156	0x3e1493ef	0.14509557
157	0xbf04827f	-0.5176162
158	0x3cb73e0e	0.022368457
159	0xbe864020	-0.26220798
160	0x3e84af53	0.25915012
161	0x3e3be982	0.18350795
162	0x3f2c6768	0.67345285
163	0xbdf56205	-0.11981586
164	0xbe1d8948	-0.153844
165	0x3eb9823d	0.36232176
166	0x3e98f954	0.29877722
167	0xbeb825a3	-0.35966215
168	0x3e20f7ff	0.15719603
169	0x3e47a0af	0.1949489
170	0xbe64621b	-0.2230305
171	0x3e46bc75	0.19407828
172	0x3e91c9c3	0.28474244
173	0xbe9a7eea	-0.30174953
174	0xbe93214c	-0.2873634
175	0xbe68fb20	-0.22752047
176	0xbdb2e573	-0.0873517
177	0xbdfb94e5	-0.12284259
178	0x3ef23167	0.47303316
179	0xbe9d3b26	-0.3070919
180	0xbdba5c1e	-0.09099601
181	0x3f086316	0.53276193
182	0x3e92766c	0.28605974
183	0x3ec7b6d4	0.39006674
184	0x3f000c2d	0.5001858
185	0x3ef759bb	0.48310646
186	0x3e0fc6ca	0.14040676
187	0x3ea101fc	0.31446826
188	0xbe19800d	-0.14990254
189	0xbe4446f5	-0.19167693
190	0xbea52d04	-0.32260907
191	0xbdee940b	-0.11649331
192	0xbea06fbe	-0.31335253
193	0xbe9ab0d0	-0.30213022
194	0x3e82b00d	0.2552494
195	0xbd2517fc	-0.040306076
196	0xbe401232	-0.18756941
197	0xbcd178f2	-0.025570367
198	0xbe78eaa8	-0.24308264
199	0xbec414a0	-0.38296986
200	0x3e7385f5	0.2378157
201	0x3da9d0eb	0.08291801
202	0xbe7e9d7b	-0.24864762
203	0xbe90b4a5	-0.2826282
204	0xbe9a9ca7	-0.3019764
205	0xbdbc7989	-0.092028685
206	0xbe5feabc	-0.21866888
207	0xbe2188cd	-0.15774842
208	0x3f6cd9f8	0.92520094
209	0x3e8c1925	0.27362934
210	0x3e2d36cd	0.16915436
211	0xbea39876	-0.31952256
212	0x3c8d25da	0.017229963
213	0xbe1e7182	-0.15472987
214	0x3c9185be	0.017763969
215	0x3ea4f4ff	0.32218167
216	0xbc379c2f	-0.011206671
217	0xbe42c523	-0.19020514
218	0x3e773d56	0.24144492
219	0xbe6adcf5	-0.22935851
220	0x3e038f6c	0.1284768
221	0xbe64180e	-0.22274801
222	0x3e392ea1	0.18084194
223	0x3e7fd27d	0.24982639
224	0x3f125788	0.5716481
225	0x3e266bc6	0.1625205
226	0xbe6de433	-0.23231582
227	0x3f44741e	0.7673968
228	0x3f13ad45	0.57686263
229	0x3f578f9b	0.842035
230	0xbdce8dcb	-0.100856386
231	0x3ed47baa	0.41500598
232	0xbd8df20e	-0.06930934
233	0xbe4cf1cb	-0.20014112
234	0x3e701c41	0.23448278
235	0xbe9a6c2e	-0.3016066
236	0xbd04f900	-0.032464027
237	0xbe9a6a1e	-0.30159086
238	0xbe9a729d	-0.30165568
239	0x3e039e30	0.12853312
240	0x3f242180	0.64113617
241	0xbe6e5356	-0.23273978
242	0x3e84931f	0.25893494
243	0xbe769238	-0.24079216
244	0x3ea460db	0.32105145
245	0xbeb5adb5	-0.3548409
246	0xbdb92eeb	-0.09042152
247	0x3f2f07ca	0.6837126
248	0xbdcf6aa1	-0.1012776
249	0x3eed32c6	0.463278
250	0xbd1dac95	-0.038494665
251	0x3ee515f8	0.44743323
252	0x3e5249d3	0.20535974
253	0x3ece2178	0.4025991
254	0x3ec59282	0.3858834
255	0x3e8ab6ec	0.27092683

l1.bias f4 [8]
0	0x3f2ba9c0	0.6705589
1	0x3f28bff0	0.65917873
2	0x3f4ef8b9	0.8084827
3	0x3f111f53	0.5668842
4	0x3e9a6cf8	0.30161262
5	0x3f50f6d6	0.8162664
6	0x3f1da9c7	0.61587185
7	0x3f1aef5e	0.60521495

l2.weight f4 [8, 8]
0	0x3e08ebc8	0.13371193
1	0xbe2b48ed	-0.16727038
2	0x3f9b3949	1.2126857
3	0x3f9f03bd	1.2423016
4	0xbf35d7e9	-0.7103258
5	0x3fb3148f	1.3990649
6	0xbe2774de	-0.16353175
7	0x3def20a3	0.11676147
8	0xbcdbc9c4	-0.026829608
9	0xbf9dc99d	-1.2327152
10	0x3f393255	0.72342426
11	0x3e0fd1d4	0.14044887
12	0x3f62b546	0.8855785
13	0xbe8e6e5e	-0.27818578
14	0x3f138ef2	0.5763999
15	0x3f060d3e	0.52363956
16	0xbe9339d6	-0.28755063
17	0x3e966aa0	0.29378223
18	0xbe7f7bb5	-0.24949534
19	0x3e4cc7c5	0.19998081
20	0x3c1c169b	0.009526874
21	0xbe9fef69	-0.31237343
22	0xbe8656c2	-0.26238066
23	0xbd2e9542	-0.042622812
24	0x3e0661b4	0.13123208
25	0x3f450118	0.76954794
26	0x3f8e9377	1.1138753
27	0xbf5e6ca5	-0.8688453
28	0x3fa5c460	1.2950554
29	0xbd859f41	-0.06524516
30	0xbf52a86d	-0.8228825
31	0x3f25526f	0.6457891
32	0x3fa1892c	1.2619987
33	0x3f38eb89	0.722344
34	0x3e102e98	0.14080274
35	0x3eee9a2b	0.46601996
36	0xbf5aee8e	-0.85520256
37	0x3e658d72	0.22417238
38	0x3facc06f	1.3496226
39	0x3d577381	0.052600387
40	0xbcb7dd65	-0.022444436
41	0xbf5af6e7	-0.85532993
42	0x3f54e078	0.8315501
43	0x3f09883c	0.537235
44	0xbe8e6166	-0.27808684
45	0xbf0bd572	-0.54622567
46	0x3f02377e	0.50865924
47	0x3f9809fc	1.1878047
48	0xbf4f0753	-0.8087055
49	0x3f0e6b84	0.55632806
50	0xbf29ee50	-0.6637926
51	0x3f23bd9c	0.63961196
52	0x3ecf90e7	0.4054024
53	0x3f73ac93	0.951852
54	0x3f6fb2fb	0.9363248
55	0x3f566ff0	0.83764553
56	0xbe06f4c8	-0.13179314
57	0x3f44a404	0.7681277
58	0x3f474211	0.77835184
59	0xbf12c02d	-0.57324487
60	0x3f8ccbfe	1.0999753
61	0xbd5f85ae	-0.054570846
62	0xbf4b5b13	-0.79435843
63	0x3f498c13	0.7872936

l2.bias f4 [8]
0	0x3f04b25d	0.5183466
1	0x3f1c531b	0.6106431
2	0xbeae5f8d	-0.34057274
3	0x3f07adf2	0.52999794
4	0x3f05fcde	0.5233897
5	0xbd00da75	-0.031458337
6	0xbd951b75	-0.07280628
7	0x3ed7304b	0.42029032

l3.weight f4 [7, 8]
0	0xbf88fe6b	-1.0702642
1	0x3f1e5bf1	0.6185904
2	0xbe1fc481	-0.15602304
3	0x3f040759	0.5157371
4	0xbf4d8e6d	-0.8029545
5	0xbfb72a80	-1.4309845
6	0xbfaff607	-1.3746957
7	0x3f0afcd4	0.54292035
8	0xbf60f635	-0.8787568
9	0xbf0b6370	-0.54448605
10	0xbad92314	-0.001656624
11	0xbf4b8308	-0.7949681
12	0x3f4ab0e3	0.7917616
13	0xbf8760c5	-1.0576407
14	0x3e69cb69	0.22831501
15	0xbf7f5d4f	-0.9975175
16	0x3f1f69d4	0.62270856
17	0xbf57d95d	-0.84316045
18	0x3dcdb52e	0.10044323
19	0x3e96e598	0.2947204
20	0x3e8e62c9	0.27809742
21	0xbfb34c09	-1.4007579
22	0xbfb92277	-1.4463643
23	0x3eabc5f3	0.3354946
24	0x3eca38cb	0.39496455
25	0x3f2e88a0	0.68177223
26	0xbeaf69d5	-0.3426043
27	0xbf4520c1	-0.77003103
28	0x3e9073a2	0.2821322
29	0x3ef0f16e	0.47059196
30	0xbf2a2bb6	-0.6647295
31	0xbf2ea0f8	-0.6821437
32	0xbf696519	-0.9116989
33	0xbf0060e6	-0.50147855
34	0x3ea49604	0.32145703
35	0x3dbed001	0.09317017
36	0xbf10394d	-0.56337434
37	0xbf58d3ef	-0.84698385
38	0x3f5074d6	0.8142828
39	0x3ecb4bd8	0.39706302
40	0xbeac3a6f	-0.3363833
41	0x3e9c8156	0.30567425
42	0x3e92e398	0.28689265
43	0xbc1ef1b2	-0.009701179
44	0xbf8abd42	-1.0839007
45	0x3f575405	0.8411258
46	0xbeaa2a7f	-0.33235547
47	0x3e3d8c94	0.18510658
48	0x3f37fcba	0.71870005
49	0xbf3557d1	-0.7083712
50	0x3e7c721a	0.24652901
51	0xbf8a5ec4	-1.081017
52	0xbc6b7566	-0.014371252
53	0xbfc27a70	-1.5193615
54	0x3f39b126	0.7253593
55	0xbf6f0979	-0.9337383

l3.bias f4 [7]
0	0x3e9acc9d	0.30234233
1	0x3ea43301	0.32070163
2	0xbd1fec57	-0.03904375
3	0xbda8794b	-0.0822626
4	0xbc95b8a2	-0.018276516
5	0xbda4bd1e	-0.08043884
6	0xbc8c92ba	-0.017159808
